{
  "transform_params" : {
    "image" : {
      "bias_a" : 0,
      "bias_g" : -0.4440000057220459,
      "bias_r" : -0.43270000815391541,
      "bias_b" : -0.44040000438690186,
      "center_mean" : 0,
      "is_network_bgr" : 0,
      "scale" : 0.0039215688593685627
    }
  },
  "properties" : {

  },
  "analyses" : {

  },
  "format_version" : 200,
  "storage" : "model.espresso.weights",
  "layers" : [
    {
      "pad_r" : 3,
      "fused_relu" : 1,
      "fused_tanh" : 0,
      "debug_info" : "533",
      "pad_fill_mode" : 0,
      "pad_b" : 3,
      "pad_l" : 3,
      "top" : "535",
      "blob_weights" : 3,
      "K" : 3,
      "blob_biases" : 1,
      "stride_x" : 2,
      "name" : "533",
      "has_batch_norm" : 0,
      "type" : "convolution",
      "n_groups" : 1,
      "pad_t" : 3,
      "stride_y" : 2,
      "has_biases" : 1,
      "C" : 64,
      "bottom" : "image",
      "weights" : {

      },
      "Nx" : 7,
      "pad_mode" : 0,
      "pad_value" : 0,
      "Ny" : 7,
      "n_parallel" : 1
    },
    {
      "pad_r" : 0,
      "fused_relu" : 1,
      "fused_tanh" : 0,
      "debug_info" : "536",
      "pad_fill_mode" : 0,
      "pad_b" : 0,
      "pad_l" : 0,
      "top" : "538",
      "blob_weights" : 7,
      "K" : 64,
      "blob_biases" : 5,
      "name" : "536",
      "has_batch_norm" : 0,
      "type" : "convolution",
      "n_groups" : 1,
      "pad_t" : 0,
      "has_biases" : 1,
      "C" : 64,
      "bottom" : "535",
      "weights" : {

      },
      "Nx" : 1,
      "pad_mode" : 0,
      "pad_value" : 0,
      "Ny" : 1,
      "n_parallel" : 1
    },
    {
      "pad_r" : 1,
      "fused_relu" : 1,
      "fused_tanh" : 0,
      "debug_info" : "539",
      "pad_fill_mode" : 0,
      "pad_b" : 1,
      "pad_l" : 1,
      "top" : "541",
      "blob_weights" : 11,
      "K" : 64,
      "blob_biases" : 9,
      "name" : "539",
      "has_batch_norm" : 0,
      "type" : "convolution",
      "n_groups" : 1,
      "pad_t" : 1,
      "has_biases" : 1,
      "C" : 64,
      "bottom" : "538",
      "weights" : {

      },
      "Nx" : 3,
      "pad_mode" : 0,
      "pad_value" : 0,
      "Ny" : 3,
      "n_parallel" : 1
    },
    {
      "pad_r" : 0,
      "fused_relu" : 0,
      "fused_tanh" : 0,
      "debug_info" : "542",
      "pad_fill_mode" : 0,
      "pad_b" : 0,
      "pad_l" : 0,
      "top" : "543",
      "blob_weights" : 15,
      "K" : 64,
      "blob_biases" : 13,
      "name" : "542",
      "has_batch_norm" : 0,
      "type" : "convolution",
      "n_groups" : 1,
      "pad_t" : 0,
      "has_biases" : 1,
      "C" : 128,
      "bottom" : "541",
      "weights" : {

      },
      "Nx" : 1,
      "pad_mode" : 0,
      "pad_value" : 0,
      "Ny" : 1,
      "n_parallel" : 1
    },
    {
      "pad_r" : 0,
      "fused_relu" : 0,
      "fused_tanh" : 0,
      "debug_info" : "544",
      "pad_fill_mode" : 0,
      "pad_b" : 0,
      "pad_l" : 0,
      "top" : "545",
      "blob_weights" : 19,
      "K" : 64,
      "blob_biases" : 17,
      "name" : "544",
      "has_batch_norm" : 0,
      "type" : "convolution",
      "n_groups" : 1,
      "pad_t" : 0,
      "has_biases" : 1,
      "C" : 128,
      "bottom" : "535",
      "weights" : {

      },
      "Nx" : 1,
      "pad_mode" : 0,
      "pad_value" : 0,
      "Ny" : 1,
      "n_parallel" : 1
    },
    {
      "bottom" : "543,545",
      "alpha" : 1,
      "operation" : 0,
      "weights" : {

      },
      "fused_relu" : 0,
      "debug_info" : "546",
      "top" : "546",
      "type" : "elementwise",
      "name" : "546",
      "beta" : 0
    },
    {
      "bottom" : "546",
      "weights" : {

      },
      "mode" : 0,
      "debug_info" : "547",
      "top" : "547",
      "type" : "activation",
      "name" : "547"
    },
    {
      "pad_r" : 0,
      "debug_info" : "548",
      "pad_fill_mode" : 0,
      "pad_b" : 0,
      "pad_l" : 0,
      "size_x" : 2,
      "top" : "548",
      "top_shape_style" : 0,
      "stride_x" : 2,
      "avg_or_max" : 1,
      "average_count_exclude_padding" : 1,
      "type" : "pool",
      "name" : "548",
      "pad_t" : 0,
      "stride_y" : 2,
      "bottom" : "547",
      "weights" : {

      },
      "pad_mode" : 2,
      "size_y" : 2,
      "pad_value" : 0
    },
    {
      "pad_r" : 0,
      "fused_relu" : 1,
      "fused_tanh" : 0,
      "debug_info" : "549",
      "pad_fill_mode" : 0,
      "pad_b" : 0,
      "pad_l" : 0,
      "top" : "551",
      "blob_weights" : 23,
      "K" : 128,
      "blob_biases" : 21,
      "name" : "549",
      "has_batch_norm" : 0,
      "type" : "convolution",
      "n_groups" : 1,
      "pad_t" : 0,
      "has_biases" : 1,
      "C" : 64,
      "bottom" : "548",
      "weights" : {

      },
      "Nx" : 1,
      "pad_mode" : 0,
      "pad_value" : 0,
      "Ny" : 1,
      "n_parallel" : 1
    },
    {
      "pad_r" : 1,
      "fused_relu" : 1,
      "fused_tanh" : 0,
      "debug_info" : "552",
      "pad_fill_mode" : 0,
      "pad_b" : 1,
      "pad_l" : 1,
      "top" : "554",
      "blob_weights" : 27,
      "K" : 64,
      "blob_biases" : 25,
      "name" : "552",
      "has_batch_norm" : 0,
      "type" : "convolution",
      "n_groups" : 1,
      "pad_t" : 1,
      "has_biases" : 1,
      "C" : 64,
      "bottom" : "551",
      "weights" : {

      },
      "Nx" : 3,
      "pad_mode" : 0,
      "pad_value" : 0,
      "Ny" : 3,
      "n_parallel" : 1
    },
    {
      "pad_r" : 0,
      "fused_relu" : 0,
      "fused_tanh" : 0,
      "debug_info" : "555",
      "pad_fill_mode" : 0,
      "pad_b" : 0,
      "pad_l" : 0,
      "top" : "555",
      "blob_weights" : 29,
      "K" : 64,
      "name" : "555",
      "has_batch_norm" : 0,
      "type" : "convolution",
      "n_groups" : 1,
      "pad_t" : 0,
      "has_biases" : 0,
      "C" : 128,
      "bottom" : "554",
      "weights" : {

      },
      "Nx" : 1,
      "pad_mode" : 0,
      "pad_value" : 0,
      "Ny" : 1,
      "n_parallel" : 1
    },
    {
      "bottom" : "555,548",
      "alpha" : 1,
      "operation" : 0,
      "weights" : {

      },
      "fused_relu" : 0,
      "debug_info" : "556",
      "top" : "556",
      "type" : "elementwise",
      "name" : "556",
      "beta" : 0
    },
    {
      "name" : "557",
      "bottom" : "556",
      "weights" : {

      },
      "debug_info" : "557",
      "top" : "557",
      "C" : 128,
      "blob_batchnorm_params" : 31,
      "type" : "batchnorm"
    },
    {
      "bottom" : "557",
      "weights" : {

      },
      "mode" : 0,
      "debug_info" : "558",
      "top" : "558",
      "type" : "activation",
      "name" : "558"
    },
    {
      "pad_r" : 0,
      "fused_relu" : 1,
      "fused_tanh" : 0,
      "debug_info" : "559",
      "pad_fill_mode" : 0,
      "pad_b" : 0,
      "pad_l" : 0,
      "top" : "561",
      "blob_weights" : 35,
      "K" : 128,
      "blob_biases" : 33,
      "name" : "559",
      "has_batch_norm" : 0,
      "type" : "convolution",
      "n_groups" : 1,
      "pad_t" : 0,
      "has_biases" : 1,
      "C" : 64,
      "bottom" : "558",
      "weights" : {

      },
      "Nx" : 1,
      "pad_mode" : 0,
      "pad_value" : 0,
      "Ny" : 1,
      "n_parallel" : 1
    },
    {
      "pad_r" : 1,
      "fused_relu" : 1,
      "fused_tanh" : 0,
      "debug_info" : "562",
      "pad_fill_mode" : 0,
      "pad_b" : 1,
      "pad_l" : 1,
      "top" : "564",
      "blob_weights" : 39,
      "K" : 64,
      "blob_biases" : 37,
      "name" : "562",
      "has_batch_norm" : 0,
      "type" : "convolution",
      "n_groups" : 1,
      "pad_t" : 1,
      "has_biases" : 1,
      "C" : 64,
      "bottom" : "561",
      "weights" : {

      },
      "Nx" : 3,
      "pad_mode" : 0,
      "pad_value" : 0,
      "Ny" : 3,
      "n_parallel" : 1
    },
    {
      "pad_r" : 0,
      "fused_relu" : 0,
      "fused_tanh" : 0,
      "debug_info" : "565",
      "pad_fill_mode" : 0,
      "pad_b" : 0,
      "pad_l" : 0,
      "top" : "565",
      "blob_weights" : 41,
      "K" : 64,
      "name" : "565",
      "has_batch_norm" : 0,
      "type" : "convolution",
      "n_groups" : 1,
      "pad_t" : 0,
      "has_biases" : 0,
      "C" : 128,
      "bottom" : "564",
      "weights" : {

      },
      "Nx" : 1,
      "pad_mode" : 0,
      "pad_value" : 0,
      "Ny" : 1,
      "n_parallel" : 1
    },
    {
      "bottom" : "565,556",
      "alpha" : 1,
      "operation" : 0,
      "weights" : {

      },
      "fused_relu" : 0,
      "debug_info" : "566",
      "top" : "566",
      "type" : "elementwise",
      "name" : "566",
      "beta" : 0
    },
    {
      "name" : "567",
      "bottom" : "566",
      "weights" : {

      },
      "debug_info" : "567",
      "top" : "567",
      "C" : 128,
      "blob_batchnorm_params" : 43,
      "type" : "batchnorm"
    },
    {
      "bottom" : "567",
      "weights" : {

      },
      "mode" : 0,
      "debug_info" : "568",
      "top" : "568",
      "type" : "activation",
      "name" : "568"
    },
    {
      "pad_r" : 0,
      "fused_relu" : 1,
      "fused_tanh" : 0,
      "debug_info" : "569",
      "pad_fill_mode" : 0,
      "pad_b" : 0,
      "pad_l" : 0,
      "top" : "571",
      "blob_weights" : 47,
      "K" : 128,
      "blob_biases" : 45,
      "name" : "569",
      "has_batch_norm" : 0,
      "type" : "convolution",
      "n_groups" : 1,
      "pad_t" : 0,
      "has_biases" : 1,
      "C" : 64,
      "bottom" : "568",
      "weights" : {

      },
      "Nx" : 1,
      "pad_mode" : 0,
      "pad_value" : 0,
      "Ny" : 1,
      "n_parallel" : 1
    },
    {
      "pad_r" : 1,
      "fused_relu" : 1,
      "fused_tanh" : 0,
      "debug_info" : "572",
      "pad_fill_mode" : 0,
      "pad_b" : 1,
      "pad_l" : 1,
      "top" : "574",
      "blob_weights" : 51,
      "K" : 64,
      "blob_biases" : 49,
      "name" : "572",
      "has_batch_norm" : 0,
      "type" : "convolution",
      "n_groups" : 1,
      "pad_t" : 1,
      "has_biases" : 1,
      "C" : 64,
      "bottom" : "571",
      "weights" : {

      },
      "Nx" : 3,
      "pad_mode" : 0,
      "pad_value" : 0,
      "Ny" : 3,
      "n_parallel" : 1
    },
    {
      "pad_r" : 0,
      "fused_relu" : 0,
      "fused_tanh" : 0,
      "debug_info" : "575",
      "pad_fill_mode" : 0,
      "pad_b" : 0,
      "pad_l" : 0,
      "top" : "575",
      "blob_weights" : 53,
      "K" : 64,
      "name" : "575",
      "has_batch_norm" : 0,
      "type" : "convolution",
      "n_groups" : 1,
      "pad_t" : 0,
      "has_biases" : 0,
      "C" : 128,
      "bottom" : "574",
      "weights" : {

      },
      "Nx" : 1,
      "pad_mode" : 0,
      "pad_value" : 0,
      "Ny" : 1,
      "n_parallel" : 1
    },
    {
      "bottom" : "575,566",
      "alpha" : 1,
      "operation" : 0,
      "weights" : {

      },
      "fused_relu" : 0,
      "debug_info" : "576",
      "top" : "576",
      "type" : "elementwise",
      "name" : "576",
      "beta" : 0
    },
    {
      "pad_r" : 0,
      "debug_info" : "577",
      "pad_fill_mode" : 0,
      "pad_b" : 0,
      "pad_l" : 0,
      "size_x" : 2,
      "top" : "577",
      "top_shape_style" : 0,
      "stride_x" : 2,
      "avg_or_max" : 1,
      "average_count_exclude_padding" : 1,
      "type" : "pool",
      "name" : "577",
      "pad_t" : 0,
      "stride_y" : 2,
      "bottom" : "576",
      "weights" : {

      },
      "pad_mode" : 2,
      "size_y" : 2,
      "pad_value" : 0
    },
    {
      "name" : "578",
      "bottom" : "577",
      "weights" : {

      },
      "debug_info" : "578",
      "top" : "578",
      "C" : 128,
      "blob_batchnorm_params" : 55,
      "type" : "batchnorm"
    },
    {
      "bottom" : "578",
      "weights" : {

      },
      "mode" : 0,
      "debug_info" : "579",
      "top" : "579",
      "type" : "activation",
      "name" : "579"
    },
    {
      "pad_r" : 0,
      "fused_relu" : 1,
      "fused_tanh" : 0,
      "debug_info" : "580",
      "pad_fill_mode" : 0,
      "pad_b" : 0,
      "pad_l" : 0,
      "top" : "582",
      "blob_weights" : 59,
      "K" : 128,
      "blob_biases" : 57,
      "name" : "580",
      "has_batch_norm" : 0,
      "type" : "convolution",
      "n_groups" : 1,
      "pad_t" : 0,
      "has_biases" : 1,
      "C" : 64,
      "bottom" : "579",
      "weights" : {

      },
      "Nx" : 1,
      "pad_mode" : 0,
      "pad_value" : 0,
      "Ny" : 1,
      "n_parallel" : 1
    },
    {
      "pad_r" : 1,
      "fused_relu" : 1,
      "fused_tanh" : 0,
      "debug_info" : "583",
      "pad_fill_mode" : 0,
      "pad_b" : 1,
      "pad_l" : 1,
      "top" : "585",
      "blob_weights" : 63,
      "K" : 64,
      "blob_biases" : 61,
      "name" : "583",
      "has_batch_norm" : 0,
      "type" : "convolution",
      "n_groups" : 1,
      "pad_t" : 1,
      "has_biases" : 1,
      "C" : 64,
      "bottom" : "582",
      "weights" : {

      },
      "Nx" : 3,
      "pad_mode" : 0,
      "pad_value" : 0,
      "Ny" : 3,
      "n_parallel" : 1
    },
    {
      "pad_r" : 0,
      "fused_relu" : 0,
      "fused_tanh" : 0,
      "debug_info" : "586",
      "pad_fill_mode" : 0,
      "pad_b" : 0,
      "pad_l" : 0,
      "top" : "586",
      "blob_weights" : 65,
      "K" : 64,
      "name" : "586",
      "has_batch_norm" : 0,
      "type" : "convolution",
      "n_groups" : 1,
      "pad_t" : 0,
      "has_biases" : 0,
      "C" : 128,
      "bottom" : "585",
      "weights" : {

      },
      "Nx" : 1,
      "pad_mode" : 0,
      "pad_value" : 0,
      "Ny" : 1,
      "n_parallel" : 1
    },
    {
      "bottom" : "586,577",
      "alpha" : 1,
      "operation" : 0,
      "weights" : {

      },
      "fused_relu" : 0,
      "debug_info" : "587",
      "top" : "587",
      "type" : "elementwise",
      "name" : "587",
      "beta" : 0
    },
    {
      "pad_r" : 0,
      "debug_info" : "588",
      "pad_fill_mode" : 0,
      "pad_b" : 0,
      "pad_l" : 0,
      "size_x" : 2,
      "top" : "588",
      "top_shape_style" : 0,
      "stride_x" : 2,
      "avg_or_max" : 1,
      "average_count_exclude_padding" : 1,
      "type" : "pool",
      "name" : "588",
      "pad_t" : 0,
      "stride_y" : 2,
      "bottom" : "587",
      "weights" : {

      },
      "pad_mode" : 2,
      "size_y" : 2,
      "pad_value" : 0
    },
    {
      "name" : "589",
      "bottom" : "588",
      "weights" : {

      },
      "debug_info" : "589",
      "top" : "589",
      "C" : 128,
      "blob_batchnorm_params" : 67,
      "type" : "batchnorm"
    },
    {
      "bottom" : "589",
      "weights" : {

      },
      "mode" : 0,
      "debug_info" : "590",
      "top" : "590",
      "type" : "activation",
      "name" : "590"
    },
    {
      "pad_r" : 0,
      "fused_relu" : 1,
      "fused_tanh" : 0,
      "debug_info" : "591",
      "pad_fill_mode" : 0,
      "pad_b" : 0,
      "pad_l" : 0,
      "top" : "593",
      "blob_weights" : 71,
      "K" : 128,
      "blob_biases" : 69,
      "name" : "591",
      "has_batch_norm" : 0,
      "type" : "convolution",
      "n_groups" : 1,
      "pad_t" : 0,
      "has_biases" : 1,
      "C" : 64,
      "bottom" : "590",
      "weights" : {

      },
      "Nx" : 1,
      "pad_mode" : 0,
      "pad_value" : 0,
      "Ny" : 1,
      "n_parallel" : 1
    },
    {
      "pad_r" : 1,
      "fused_relu" : 1,
      "fused_tanh" : 0,
      "debug_info" : "594",
      "pad_fill_mode" : 0,
      "pad_b" : 1,
      "pad_l" : 1,
      "top" : "596",
      "blob_weights" : 75,
      "K" : 64,
      "blob_biases" : 73,
      "name" : "594",
      "has_batch_norm" : 0,
      "type" : "convolution",
      "n_groups" : 1,
      "pad_t" : 1,
      "has_biases" : 1,
      "C" : 64,
      "bottom" : "593",
      "weights" : {

      },
      "Nx" : 3,
      "pad_mode" : 0,
      "pad_value" : 0,
      "Ny" : 3,
      "n_parallel" : 1
    },
    {
      "pad_r" : 0,
      "fused_relu" : 0,
      "fused_tanh" : 0,
      "debug_info" : "597",
      "pad_fill_mode" : 0,
      "pad_b" : 0,
      "pad_l" : 0,
      "top" : "597",
      "blob_weights" : 77,
      "K" : 64,
      "name" : "597",
      "has_batch_norm" : 0,
      "type" : "convolution",
      "n_groups" : 1,
      "pad_t" : 0,
      "has_biases" : 0,
      "C" : 128,
      "bottom" : "596",
      "weights" : {

      },
      "Nx" : 1,
      "pad_mode" : 0,
      "pad_value" : 0,
      "Ny" : 1,
      "n_parallel" : 1
    },
    {
      "bottom" : "597,588",
      "alpha" : 1,
      "operation" : 0,
      "weights" : {

      },
      "fused_relu" : 0,
      "debug_info" : "598",
      "top" : "598",
      "type" : "elementwise",
      "name" : "598",
      "beta" : 0
    },
    {
      "pad_r" : 0,
      "debug_info" : "599",
      "pad_fill_mode" : 0,
      "pad_b" : 0,
      "pad_l" : 0,
      "size_x" : 2,
      "top" : "599",
      "top_shape_style" : 0,
      "stride_x" : 2,
      "avg_or_max" : 1,
      "average_count_exclude_padding" : 1,
      "type" : "pool",
      "name" : "599",
      "pad_t" : 0,
      "stride_y" : 2,
      "bottom" : "598",
      "weights" : {

      },
      "pad_mode" : 2,
      "size_y" : 2,
      "pad_value" : 0
    },
    {
      "name" : "600",
      "bottom" : "599",
      "weights" : {

      },
      "debug_info" : "600",
      "top" : "600",
      "C" : 128,
      "blob_batchnorm_params" : 79,
      "type" : "batchnorm"
    },
    {
      "bottom" : "600",
      "weights" : {

      },
      "mode" : 0,
      "debug_info" : "601",
      "top" : "601",
      "type" : "activation",
      "name" : "601"
    },
    {
      "pad_r" : 0,
      "fused_relu" : 1,
      "fused_tanh" : 0,
      "debug_info" : "602",
      "pad_fill_mode" : 0,
      "pad_b" : 0,
      "pad_l" : 0,
      "top" : "604",
      "blob_weights" : 83,
      "K" : 128,
      "blob_biases" : 81,
      "name" : "602",
      "has_batch_norm" : 0,
      "type" : "convolution",
      "n_groups" : 1,
      "pad_t" : 0,
      "has_biases" : 1,
      "C" : 64,
      "bottom" : "601",
      "weights" : {

      },
      "Nx" : 1,
      "pad_mode" : 0,
      "pad_value" : 0,
      "Ny" : 1,
      "n_parallel" : 1
    },
    {
      "pad_r" : 1,
      "fused_relu" : 1,
      "fused_tanh" : 0,
      "debug_info" : "605",
      "pad_fill_mode" : 0,
      "pad_b" : 1,
      "pad_l" : 1,
      "top" : "607",
      "blob_weights" : 87,
      "K" : 64,
      "blob_biases" : 85,
      "name" : "605",
      "has_batch_norm" : 0,
      "type" : "convolution",
      "n_groups" : 1,
      "pad_t" : 1,
      "has_biases" : 1,
      "C" : 64,
      "bottom" : "604",
      "weights" : {

      },
      "Nx" : 3,
      "pad_mode" : 0,
      "pad_value" : 0,
      "Ny" : 3,
      "n_parallel" : 1
    },
    {
      "pad_r" : 0,
      "fused_relu" : 0,
      "fused_tanh" : 0,
      "debug_info" : "608",
      "pad_fill_mode" : 0,
      "pad_b" : 0,
      "pad_l" : 0,
      "top" : "608",
      "blob_weights" : 89,
      "K" : 64,
      "name" : "608",
      "has_batch_norm" : 0,
      "type" : "convolution",
      "n_groups" : 1,
      "pad_t" : 0,
      "has_biases" : 0,
      "C" : 128,
      "bottom" : "607",
      "weights" : {

      },
      "Nx" : 1,
      "pad_mode" : 0,
      "pad_value" : 0,
      "Ny" : 1,
      "n_parallel" : 1
    },
    {
      "bottom" : "608,599",
      "alpha" : 1,
      "operation" : 0,
      "weights" : {

      },
      "fused_relu" : 0,
      "debug_info" : "609",
      "top" : "609",
      "type" : "elementwise",
      "name" : "609",
      "beta" : 0
    },
    {
      "pad_r" : 0,
      "debug_info" : "610",
      "pad_fill_mode" : 0,
      "pad_b" : 0,
      "pad_l" : 0,
      "size_x" : 2,
      "top" : "610",
      "top_shape_style" : 0,
      "stride_x" : 2,
      "avg_or_max" : 1,
      "average_count_exclude_padding" : 1,
      "type" : "pool",
      "name" : "610",
      "pad_t" : 0,
      "stride_y" : 2,
      "bottom" : "609",
      "weights" : {

      },
      "pad_mode" : 2,
      "size_y" : 2,
      "pad_value" : 0
    },
    {
      "name" : "611",
      "bottom" : "610",
      "weights" : {

      },
      "debug_info" : "611",
      "top" : "611",
      "C" : 128,
      "blob_batchnorm_params" : 91,
      "type" : "batchnorm"
    },
    {
      "bottom" : "611",
      "weights" : {

      },
      "mode" : 0,
      "debug_info" : "612",
      "top" : "612",
      "type" : "activation",
      "name" : "612"
    },
    {
      "pad_r" : 0,
      "fused_relu" : 1,
      "fused_tanh" : 0,
      "debug_info" : "613",
      "pad_fill_mode" : 0,
      "pad_b" : 0,
      "pad_l" : 0,
      "top" : "615",
      "blob_weights" : 95,
      "K" : 128,
      "blob_biases" : 93,
      "name" : "613",
      "has_batch_norm" : 0,
      "type" : "convolution",
      "n_groups" : 1,
      "pad_t" : 0,
      "has_biases" : 1,
      "C" : 64,
      "bottom" : "612",
      "weights" : {

      },
      "Nx" : 1,
      "pad_mode" : 0,
      "pad_value" : 0,
      "Ny" : 1,
      "n_parallel" : 1
    },
    {
      "pad_r" : 1,
      "fused_relu" : 1,
      "fused_tanh" : 0,
      "debug_info" : "616",
      "pad_fill_mode" : 0,
      "pad_b" : 1,
      "pad_l" : 1,
      "top" : "618",
      "blob_weights" : 99,
      "K" : 64,
      "blob_biases" : 97,
      "name" : "616",
      "has_batch_norm" : 0,
      "type" : "convolution",
      "n_groups" : 1,
      "pad_t" : 1,
      "has_biases" : 1,
      "C" : 64,
      "bottom" : "615",
      "weights" : {

      },
      "Nx" : 3,
      "pad_mode" : 0,
      "pad_value" : 0,
      "Ny" : 3,
      "n_parallel" : 1
    },
    {
      "pad_r" : 0,
      "fused_relu" : 0,
      "fused_tanh" : 0,
      "debug_info" : "619",
      "pad_fill_mode" : 0,
      "pad_b" : 0,
      "pad_l" : 0,
      "top" : "619",
      "blob_weights" : 101,
      "K" : 64,
      "name" : "619",
      "has_batch_norm" : 0,
      "type" : "convolution",
      "n_groups" : 1,
      "pad_t" : 0,
      "has_biases" : 0,
      "C" : 128,
      "bottom" : "618",
      "weights" : {

      },
      "Nx" : 1,
      "pad_mode" : 0,
      "pad_value" : 0,
      "Ny" : 1,
      "n_parallel" : 1
    },
    {
      "bottom" : "619,610",
      "alpha" : 1,
      "operation" : 0,
      "weights" : {

      },
      "fused_relu" : 0,
      "debug_info" : "620",
      "top" : "620",
      "type" : "elementwise",
      "name" : "620",
      "beta" : 0
    },
    {
      "top" : "622",
      "use_fractional_scale_factors" : false,
      "weights" : {

      },
      "fractional_scaling_factor_y" : 1,
      "type" : "upsample",
      "scaling_factor_x" : 2,
      "mode" : 0,
      "align_corners" : 0,
      "bottom" : "620",
      "debug_info" : "622",
      "fractional_scaling_factor_x" : 1,
      "is_legacy_mode" : 1,
      "name" : "622",
      "scaling_factor_y" : 2
    },
    {
      "bottom" : "609,622",
      "alpha" : 1,
      "operation" : 0,
      "weights" : {

      },
      "fused_relu" : 0,
      "debug_info" : "623",
      "top" : "623",
      "type" : "elementwise",
      "name" : "623",
      "beta" : 0
    },
    {
      "name" : "624",
      "bottom" : "623",
      "weights" : {

      },
      "debug_info" : "624",
      "top" : "624",
      "C" : 128,
      "blob_batchnorm_params" : 103,
      "type" : "batchnorm"
    },
    {
      "bottom" : "624",
      "weights" : {

      },
      "mode" : 0,
      "debug_info" : "625",
      "top" : "625",
      "type" : "activation",
      "name" : "625"
    },
    {
      "pad_r" : 0,
      "fused_relu" : 1,
      "fused_tanh" : 0,
      "debug_info" : "626",
      "pad_fill_mode" : 0,
      "pad_b" : 0,
      "pad_l" : 0,
      "top" : "628",
      "blob_weights" : 107,
      "K" : 128,
      "blob_biases" : 105,
      "name" : "626",
      "has_batch_norm" : 0,
      "type" : "convolution",
      "n_groups" : 1,
      "pad_t" : 0,
      "has_biases" : 1,
      "C" : 64,
      "bottom" : "625",
      "weights" : {

      },
      "Nx" : 1,
      "pad_mode" : 0,
      "pad_value" : 0,
      "Ny" : 1,
      "n_parallel" : 1
    },
    {
      "pad_r" : 1,
      "fused_relu" : 1,
      "fused_tanh" : 0,
      "debug_info" : "629",
      "pad_fill_mode" : 0,
      "pad_b" : 1,
      "pad_l" : 1,
      "top" : "631",
      "blob_weights" : 111,
      "K" : 64,
      "blob_biases" : 109,
      "name" : "629",
      "has_batch_norm" : 0,
      "type" : "convolution",
      "n_groups" : 1,
      "pad_t" : 1,
      "has_biases" : 1,
      "C" : 64,
      "bottom" : "628",
      "weights" : {

      },
      "Nx" : 3,
      "pad_mode" : 0,
      "pad_value" : 0,
      "Ny" : 3,
      "n_parallel" : 1
    },
    {
      "pad_r" : 0,
      "fused_relu" : 0,
      "fused_tanh" : 0,
      "debug_info" : "632",
      "pad_fill_mode" : 0,
      "pad_b" : 0,
      "pad_l" : 0,
      "top" : "632",
      "blob_weights" : 113,
      "K" : 64,
      "name" : "632",
      "has_batch_norm" : 0,
      "type" : "convolution",
      "n_groups" : 1,
      "pad_t" : 0,
      "has_biases" : 0,
      "C" : 128,
      "bottom" : "631",
      "weights" : {

      },
      "Nx" : 1,
      "pad_mode" : 0,
      "pad_value" : 0,
      "Ny" : 1,
      "n_parallel" : 1
    },
    {
      "bottom" : "632,623",
      "alpha" : 1,
      "operation" : 0,
      "weights" : {

      },
      "fused_relu" : 0,
      "debug_info" : "633",
      "top" : "633",
      "type" : "elementwise",
      "name" : "633",
      "beta" : 0
    },
    {
      "top" : "635",
      "use_fractional_scale_factors" : false,
      "weights" : {

      },
      "fractional_scaling_factor_y" : 1,
      "type" : "upsample",
      "scaling_factor_x" : 2,
      "mode" : 0,
      "align_corners" : 0,
      "bottom" : "633",
      "debug_info" : "635",
      "fractional_scaling_factor_x" : 1,
      "is_legacy_mode" : 1,
      "name" : "635",
      "scaling_factor_y" : 2
    },
    {
      "bottom" : "598,635",
      "alpha" : 1,
      "operation" : 0,
      "weights" : {

      },
      "fused_relu" : 0,
      "debug_info" : "636",
      "top" : "636",
      "type" : "elementwise",
      "name" : "636",
      "beta" : 0
    },
    {
      "name" : "637",
      "bottom" : "636",
      "weights" : {

      },
      "debug_info" : "637",
      "top" : "637",
      "C" : 128,
      "blob_batchnorm_params" : 115,
      "type" : "batchnorm"
    },
    {
      "bottom" : "637",
      "weights" : {

      },
      "mode" : 0,
      "debug_info" : "638",
      "top" : "638",
      "type" : "activation",
      "name" : "638"
    },
    {
      "pad_r" : 0,
      "fused_relu" : 1,
      "fused_tanh" : 0,
      "debug_info" : "639",
      "pad_fill_mode" : 0,
      "pad_b" : 0,
      "pad_l" : 0,
      "top" : "641",
      "blob_weights" : 119,
      "K" : 128,
      "blob_biases" : 117,
      "name" : "639",
      "has_batch_norm" : 0,
      "type" : "convolution",
      "n_groups" : 1,
      "pad_t" : 0,
      "has_biases" : 1,
      "C" : 64,
      "bottom" : "638",
      "weights" : {

      },
      "Nx" : 1,
      "pad_mode" : 0,
      "pad_value" : 0,
      "Ny" : 1,
      "n_parallel" : 1
    },
    {
      "pad_r" : 1,
      "fused_relu" : 1,
      "fused_tanh" : 0,
      "debug_info" : "642",
      "pad_fill_mode" : 0,
      "pad_b" : 1,
      "pad_l" : 1,
      "top" : "644",
      "blob_weights" : 123,
      "K" : 64,
      "blob_biases" : 121,
      "name" : "642",
      "has_batch_norm" : 0,
      "type" : "convolution",
      "n_groups" : 1,
      "pad_t" : 1,
      "has_biases" : 1,
      "C" : 64,
      "bottom" : "641",
      "weights" : {

      },
      "Nx" : 3,
      "pad_mode" : 0,
      "pad_value" : 0,
      "Ny" : 3,
      "n_parallel" : 1
    },
    {
      "pad_r" : 0,
      "fused_relu" : 0,
      "fused_tanh" : 0,
      "debug_info" : "645",
      "pad_fill_mode" : 0,
      "pad_b" : 0,
      "pad_l" : 0,
      "top" : "645",
      "blob_weights" : 125,
      "K" : 64,
      "name" : "645",
      "has_batch_norm" : 0,
      "type" : "convolution",
      "n_groups" : 1,
      "pad_t" : 0,
      "has_biases" : 0,
      "C" : 128,
      "bottom" : "644",
      "weights" : {

      },
      "Nx" : 1,
      "pad_mode" : 0,
      "pad_value" : 0,
      "Ny" : 1,
      "n_parallel" : 1
    },
    {
      "bottom" : "645,636",
      "alpha" : 1,
      "operation" : 0,
      "weights" : {

      },
      "fused_relu" : 0,
      "debug_info" : "646",
      "top" : "646",
      "type" : "elementwise",
      "name" : "646",
      "beta" : 0
    },
    {
      "top" : "648",
      "use_fractional_scale_factors" : false,
      "weights" : {

      },
      "fractional_scaling_factor_y" : 1,
      "type" : "upsample",
      "scaling_factor_x" : 2,
      "mode" : 0,
      "align_corners" : 0,
      "bottom" : "646",
      "debug_info" : "648",
      "fractional_scaling_factor_x" : 1,
      "is_legacy_mode" : 1,
      "name" : "648",
      "scaling_factor_y" : 2
    },
    {
      "bottom" : "587,648",
      "alpha" : 1,
      "operation" : 0,
      "weights" : {

      },
      "fused_relu" : 0,
      "debug_info" : "649",
      "top" : "649",
      "type" : "elementwise",
      "name" : "649",
      "beta" : 0
    },
    {
      "name" : "650",
      "bottom" : "649",
      "weights" : {

      },
      "debug_info" : "650",
      "top" : "650",
      "C" : 128,
      "blob_batchnorm_params" : 127,
      "type" : "batchnorm"
    },
    {
      "bottom" : "650",
      "weights" : {

      },
      "mode" : 0,
      "debug_info" : "651",
      "top" : "651",
      "type" : "activation",
      "name" : "651"
    },
    {
      "pad_r" : 0,
      "fused_relu" : 1,
      "fused_tanh" : 0,
      "debug_info" : "652",
      "pad_fill_mode" : 0,
      "pad_b" : 0,
      "pad_l" : 0,
      "top" : "654",
      "blob_weights" : 131,
      "K" : 128,
      "blob_biases" : 129,
      "name" : "652",
      "has_batch_norm" : 0,
      "type" : "convolution",
      "n_groups" : 1,
      "pad_t" : 0,
      "has_biases" : 1,
      "C" : 64,
      "bottom" : "651",
      "weights" : {

      },
      "Nx" : 1,
      "pad_mode" : 0,
      "pad_value" : 0,
      "Ny" : 1,
      "n_parallel" : 1
    },
    {
      "pad_r" : 1,
      "fused_relu" : 1,
      "fused_tanh" : 0,
      "debug_info" : "655",
      "pad_fill_mode" : 0,
      "pad_b" : 1,
      "pad_l" : 1,
      "top" : "657",
      "blob_weights" : 135,
      "K" : 64,
      "blob_biases" : 133,
      "name" : "655",
      "has_batch_norm" : 0,
      "type" : "convolution",
      "n_groups" : 1,
      "pad_t" : 1,
      "has_biases" : 1,
      "C" : 64,
      "bottom" : "654",
      "weights" : {

      },
      "Nx" : 3,
      "pad_mode" : 0,
      "pad_value" : 0,
      "Ny" : 3,
      "n_parallel" : 1
    },
    {
      "pad_r" : 0,
      "fused_relu" : 0,
      "fused_tanh" : 0,
      "debug_info" : "658",
      "pad_fill_mode" : 0,
      "pad_b" : 0,
      "pad_l" : 0,
      "top" : "658",
      "blob_weights" : 137,
      "K" : 64,
      "name" : "658",
      "has_batch_norm" : 0,
      "type" : "convolution",
      "n_groups" : 1,
      "pad_t" : 0,
      "has_biases" : 0,
      "C" : 128,
      "bottom" : "657",
      "weights" : {

      },
      "Nx" : 1,
      "pad_mode" : 0,
      "pad_value" : 0,
      "Ny" : 1,
      "n_parallel" : 1
    },
    {
      "bottom" : "658,649",
      "alpha" : 1,
      "operation" : 0,
      "weights" : {

      },
      "fused_relu" : 0,
      "debug_info" : "659",
      "top" : "659",
      "type" : "elementwise",
      "name" : "659",
      "beta" : 0
    },
    {
      "top" : "661",
      "use_fractional_scale_factors" : false,
      "weights" : {

      },
      "fractional_scaling_factor_y" : 1,
      "type" : "upsample",
      "scaling_factor_x" : 2,
      "mode" : 0,
      "align_corners" : 0,
      "bottom" : "659",
      "debug_info" : "661",
      "fractional_scaling_factor_x" : 1,
      "is_legacy_mode" : 1,
      "name" : "661",
      "scaling_factor_y" : 2
    },
    {
      "bottom" : "576,661",
      "alpha" : 1,
      "operation" : 0,
      "weights" : {

      },
      "fused_relu" : 0,
      "debug_info" : "662",
      "top" : "662",
      "type" : "elementwise",
      "name" : "662",
      "beta" : 0
    },
    {
      "name" : "663",
      "bottom" : "662",
      "weights" : {

      },
      "debug_info" : "663",
      "top" : "663",
      "C" : 128,
      "blob_batchnorm_params" : 139,
      "type" : "batchnorm"
    },
    {
      "bottom" : "663",
      "weights" : {

      },
      "mode" : 0,
      "debug_info" : "664",
      "top" : "664",
      "type" : "activation",
      "name" : "664"
    },
    {
      "pad_r" : 0,
      "fused_relu" : 1,
      "fused_tanh" : 0,
      "debug_info" : "665",
      "pad_fill_mode" : 0,
      "pad_b" : 0,
      "pad_l" : 0,
      "top" : "667",
      "blob_weights" : 143,
      "K" : 128,
      "blob_biases" : 141,
      "name" : "665",
      "has_batch_norm" : 0,
      "type" : "convolution",
      "n_groups" : 1,
      "pad_t" : 0,
      "has_biases" : 1,
      "C" : 64,
      "bottom" : "664",
      "weights" : {

      },
      "Nx" : 1,
      "pad_mode" : 0,
      "pad_value" : 0,
      "Ny" : 1,
      "n_parallel" : 1
    },
    {
      "pad_r" : 1,
      "fused_relu" : 1,
      "fused_tanh" : 0,
      "debug_info" : "668",
      "pad_fill_mode" : 0,
      "pad_b" : 1,
      "pad_l" : 1,
      "top" : "670",
      "blob_weights" : 147,
      "K" : 64,
      "blob_biases" : 145,
      "name" : "668",
      "has_batch_norm" : 0,
      "type" : "convolution",
      "n_groups" : 1,
      "pad_t" : 1,
      "has_biases" : 1,
      "C" : 64,
      "bottom" : "667",
      "weights" : {

      },
      "Nx" : 3,
      "pad_mode" : 0,
      "pad_value" : 0,
      "Ny" : 3,
      "n_parallel" : 1
    },
    {
      "pad_r" : 0,
      "fused_relu" : 0,
      "fused_tanh" : 0,
      "debug_info" : "671",
      "pad_fill_mode" : 0,
      "pad_b" : 0,
      "pad_l" : 0,
      "top" : "671",
      "blob_weights" : 149,
      "K" : 64,
      "name" : "671",
      "has_batch_norm" : 0,
      "type" : "convolution",
      "n_groups" : 1,
      "pad_t" : 0,
      "has_biases" : 0,
      "C" : 128,
      "bottom" : "670",
      "weights" : {

      },
      "Nx" : 1,
      "pad_mode" : 0,
      "pad_value" : 0,
      "Ny" : 1,
      "n_parallel" : 1
    },
    {
      "bottom" : "671,662",
      "alpha" : 1,
      "operation" : 0,
      "weights" : {

      },
      "fused_relu" : 0,
      "debug_info" : "672",
      "top" : "672",
      "type" : "elementwise",
      "name" : "672",
      "beta" : 0
    },
    {
      "name" : "673",
      "bottom" : "672",
      "weights" : {

      },
      "debug_info" : "673",
      "top" : "673",
      "C" : 128,
      "blob_batchnorm_params" : 151,
      "type" : "batchnorm"
    },
    {
      "bottom" : "673",
      "weights" : {

      },
      "mode" : 0,
      "debug_info" : "674",
      "top" : "674",
      "type" : "activation",
      "name" : "674"
    },
    {
      "pad_r" : 0,
      "fused_relu" : 1,
      "fused_tanh" : 0,
      "debug_info" : "675",
      "pad_fill_mode" : 0,
      "pad_b" : 0,
      "pad_l" : 0,
      "top" : "677",
      "blob_weights" : 155,
      "K" : 128,
      "blob_biases" : 153,
      "name" : "675",
      "has_batch_norm" : 0,
      "type" : "convolution",
      "n_groups" : 1,
      "pad_t" : 0,
      "has_biases" : 1,
      "C" : 128,
      "bottom" : "674",
      "weights" : {

      },
      "Nx" : 1,
      "pad_mode" : 0,
      "pad_value" : 0,
      "Ny" : 1,
      "n_parallel" : 1
    },
    {
      "pad_r" : 0,
      "fused_relu" : 0,
      "fused_tanh" : 0,
      "debug_info" : "678",
      "pad_fill_mode" : 0,
      "pad_b" : 0,
      "pad_l" : 0,
      "top" : "678",
      "blob_weights" : 159,
      "K" : 128,
      "blob_biases" : 157,
      "name" : "678",
      "has_batch_norm" : 0,
      "type" : "convolution",
      "n_groups" : 1,
      "pad_t" : 0,
      "has_biases" : 1,
      "C" : 16,
      "bottom" : "677",
      "weights" : {

      },
      "Nx" : 1,
      "pad_mode" : 0,
      "pad_value" : 0,
      "Ny" : 1,
      "n_parallel" : 1
    },
    {
      "pad_r" : 0,
      "fused_relu" : 0,
      "fused_tanh" : 0,
      "debug_info" : "679",
      "pad_fill_mode" : 0,
      "pad_b" : 0,
      "pad_l" : 0,
      "top" : "679",
      "blob_weights" : 163,
      "K" : 128,
      "blob_biases" : 161,
      "name" : "679",
      "has_batch_norm" : 0,
      "type" : "convolution",
      "n_groups" : 1,
      "pad_t" : 0,
      "has_biases" : 1,
      "C" : 128,
      "bottom" : "677",
      "weights" : {

      },
      "Nx" : 1,
      "pad_mode" : 0,
      "pad_value" : 0,
      "Ny" : 1,
      "n_parallel" : 1
    },
    {
      "pad_r" : 0,
      "fused_relu" : 0,
      "fused_tanh" : 0,
      "debug_info" : "680",
      "pad_fill_mode" : 0,
      "pad_b" : 0,
      "pad_l" : 0,
      "top" : "680",
      "blob_weights" : 167,
      "K" : 16,
      "blob_biases" : 165,
      "name" : "680",
      "has_batch_norm" : 0,
      "type" : "convolution",
      "n_groups" : 1,
      "pad_t" : 0,
      "has_biases" : 1,
      "C" : 128,
      "bottom" : "678",
      "weights" : {

      },
      "Nx" : 1,
      "pad_mode" : 0,
      "pad_value" : 0,
      "Ny" : 1,
      "n_parallel" : 1
    },
    {
      "bottom" : "566,679",
      "alpha" : 1,
      "operation" : 0,
      "weights" : {

      },
      "fused_relu" : 0,
      "debug_info" : "681",
      "top" : "681",
      "type" : "elementwise",
      "name" : "681",
      "beta" : 0
    },
    {
      "bottom" : "681,680",
      "alpha" : 1,
      "operation" : 0,
      "weights" : {

      },
      "fused_relu" : 0,
      "debug_info" : "682",
      "top" : "682",
      "type" : "elementwise",
      "name" : "682",
      "beta" : 0
    },
    {
      "name" : "683",
      "bottom" : "682",
      "weights" : {

      },
      "debug_info" : "683",
      "top" : "683",
      "C" : 128,
      "blob_batchnorm_params" : 169,
      "type" : "batchnorm"
    },
    {
      "bottom" : "683",
      "weights" : {

      },
      "mode" : 0,
      "debug_info" : "684",
      "top" : "684",
      "type" : "activation",
      "name" : "684"
    },
    {
      "pad_r" : 0,
      "fused_relu" : 1,
      "fused_tanh" : 0,
      "debug_info" : "685",
      "pad_fill_mode" : 0,
      "pad_b" : 0,
      "pad_l" : 0,
      "top" : "687",
      "blob_weights" : 173,
      "K" : 128,
      "blob_biases" : 171,
      "name" : "685",
      "has_batch_norm" : 0,
      "type" : "convolution",
      "n_groups" : 1,
      "pad_t" : 0,
      "has_biases" : 1,
      "C" : 64,
      "bottom" : "684",
      "weights" : {

      },
      "Nx" : 1,
      "pad_mode" : 0,
      "pad_value" : 0,
      "Ny" : 1,
      "n_parallel" : 1
    },
    {
      "pad_r" : 1,
      "fused_relu" : 1,
      "fused_tanh" : 0,
      "debug_info" : "688",
      "pad_fill_mode" : 0,
      "pad_b" : 1,
      "pad_l" : 1,
      "top" : "690",
      "blob_weights" : 177,
      "K" : 64,
      "blob_biases" : 175,
      "name" : "688",
      "has_batch_norm" : 0,
      "type" : "convolution",
      "n_groups" : 1,
      "pad_t" : 1,
      "has_biases" : 1,
      "C" : 64,
      "bottom" : "687",
      "weights" : {

      },
      "Nx" : 3,
      "pad_mode" : 0,
      "pad_value" : 0,
      "Ny" : 3,
      "n_parallel" : 1
    },
    {
      "pad_r" : 0,
      "fused_relu" : 0,
      "fused_tanh" : 0,
      "debug_info" : "691",
      "pad_fill_mode" : 0,
      "pad_b" : 0,
      "pad_l" : 0,
      "top" : "691",
      "blob_weights" : 179,
      "K" : 64,
      "name" : "691",
      "has_batch_norm" : 0,
      "type" : "convolution",
      "n_groups" : 1,
      "pad_t" : 0,
      "has_biases" : 0,
      "C" : 128,
      "bottom" : "690",
      "weights" : {

      },
      "Nx" : 1,
      "pad_mode" : 0,
      "pad_value" : 0,
      "Ny" : 1,
      "n_parallel" : 1
    },
    {
      "bottom" : "691,682",
      "alpha" : 1,
      "operation" : 0,
      "weights" : {

      },
      "fused_relu" : 0,
      "debug_info" : "692",
      "top" : "692",
      "type" : "elementwise",
      "name" : "692",
      "beta" : 0
    },
    {
      "pad_r" : 0,
      "debug_info" : "693",
      "pad_fill_mode" : 0,
      "pad_b" : 0,
      "pad_l" : 0,
      "size_x" : 2,
      "top" : "693",
      "top_shape_style" : 0,
      "stride_x" : 2,
      "avg_or_max" : 1,
      "average_count_exclude_padding" : 1,
      "type" : "pool",
      "name" : "693",
      "pad_t" : 0,
      "stride_y" : 2,
      "bottom" : "692",
      "weights" : {

      },
      "pad_mode" : 2,
      "size_y" : 2,
      "pad_value" : 0
    },
    {
      "name" : "694",
      "bottom" : "693",
      "weights" : {

      },
      "debug_info" : "694",
      "top" : "694",
      "C" : 128,
      "blob_batchnorm_params" : 181,
      "type" : "batchnorm"
    },
    {
      "bottom" : "694",
      "weights" : {

      },
      "mode" : 0,
      "debug_info" : "695",
      "top" : "695",
      "type" : "activation",
      "name" : "695"
    },
    {
      "pad_r" : 0,
      "fused_relu" : 1,
      "fused_tanh" : 0,
      "debug_info" : "696",
      "pad_fill_mode" : 0,
      "pad_b" : 0,
      "pad_l" : 0,
      "top" : "698",
      "blob_weights" : 185,
      "K" : 128,
      "blob_biases" : 183,
      "name" : "696",
      "has_batch_norm" : 0,
      "type" : "convolution",
      "n_groups" : 1,
      "pad_t" : 0,
      "has_biases" : 1,
      "C" : 64,
      "bottom" : "695",
      "weights" : {

      },
      "Nx" : 1,
      "pad_mode" : 0,
      "pad_value" : 0,
      "Ny" : 1,
      "n_parallel" : 1
    },
    {
      "pad_r" : 1,
      "fused_relu" : 1,
      "fused_tanh" : 0,
      "debug_info" : "699",
      "pad_fill_mode" : 0,
      "pad_b" : 1,
      "pad_l" : 1,
      "top" : "701",
      "blob_weights" : 189,
      "K" : 64,
      "blob_biases" : 187,
      "name" : "699",
      "has_batch_norm" : 0,
      "type" : "convolution",
      "n_groups" : 1,
      "pad_t" : 1,
      "has_biases" : 1,
      "C" : 64,
      "bottom" : "698",
      "weights" : {

      },
      "Nx" : 3,
      "pad_mode" : 0,
      "pad_value" : 0,
      "Ny" : 3,
      "n_parallel" : 1
    },
    {
      "pad_r" : 0,
      "fused_relu" : 0,
      "fused_tanh" : 0,
      "debug_info" : "702",
      "pad_fill_mode" : 0,
      "pad_b" : 0,
      "pad_l" : 0,
      "top" : "702",
      "blob_weights" : 191,
      "K" : 64,
      "name" : "702",
      "has_batch_norm" : 0,
      "type" : "convolution",
      "n_groups" : 1,
      "pad_t" : 0,
      "has_biases" : 0,
      "C" : 128,
      "bottom" : "701",
      "weights" : {

      },
      "Nx" : 1,
      "pad_mode" : 0,
      "pad_value" : 0,
      "Ny" : 1,
      "n_parallel" : 1
    },
    {
      "bottom" : "702,693",
      "alpha" : 1,
      "operation" : 0,
      "weights" : {

      },
      "fused_relu" : 0,
      "debug_info" : "703",
      "top" : "703",
      "type" : "elementwise",
      "name" : "703",
      "beta" : 0
    },
    {
      "pad_r" : 0,
      "debug_info" : "704",
      "pad_fill_mode" : 0,
      "pad_b" : 0,
      "pad_l" : 0,
      "size_x" : 2,
      "top" : "704",
      "top_shape_style" : 0,
      "stride_x" : 2,
      "avg_or_max" : 1,
      "average_count_exclude_padding" : 1,
      "type" : "pool",
      "name" : "704",
      "pad_t" : 0,
      "stride_y" : 2,
      "bottom" : "703",
      "weights" : {

      },
      "pad_mode" : 2,
      "size_y" : 2,
      "pad_value" : 0
    },
    {
      "name" : "705",
      "bottom" : "704",
      "weights" : {

      },
      "debug_info" : "705",
      "top" : "705",
      "C" : 128,
      "blob_batchnorm_params" : 193,
      "type" : "batchnorm"
    },
    {
      "bottom" : "705",
      "weights" : {

      },
      "mode" : 0,
      "debug_info" : "706",
      "top" : "706",
      "type" : "activation",
      "name" : "706"
    },
    {
      "pad_r" : 0,
      "fused_relu" : 1,
      "fused_tanh" : 0,
      "debug_info" : "707",
      "pad_fill_mode" : 0,
      "pad_b" : 0,
      "pad_l" : 0,
      "top" : "709",
      "blob_weights" : 197,
      "K" : 128,
      "blob_biases" : 195,
      "name" : "707",
      "has_batch_norm" : 0,
      "type" : "convolution",
      "n_groups" : 1,
      "pad_t" : 0,
      "has_biases" : 1,
      "C" : 64,
      "bottom" : "706",
      "weights" : {

      },
      "Nx" : 1,
      "pad_mode" : 0,
      "pad_value" : 0,
      "Ny" : 1,
      "n_parallel" : 1
    },
    {
      "pad_r" : 1,
      "fused_relu" : 1,
      "fused_tanh" : 0,
      "debug_info" : "710",
      "pad_fill_mode" : 0,
      "pad_b" : 1,
      "pad_l" : 1,
      "top" : "712",
      "blob_weights" : 201,
      "K" : 64,
      "blob_biases" : 199,
      "name" : "710",
      "has_batch_norm" : 0,
      "type" : "convolution",
      "n_groups" : 1,
      "pad_t" : 1,
      "has_biases" : 1,
      "C" : 64,
      "bottom" : "709",
      "weights" : {

      },
      "Nx" : 3,
      "pad_mode" : 0,
      "pad_value" : 0,
      "Ny" : 3,
      "n_parallel" : 1
    },
    {
      "pad_r" : 0,
      "fused_relu" : 0,
      "fused_tanh" : 0,
      "debug_info" : "713",
      "pad_fill_mode" : 0,
      "pad_b" : 0,
      "pad_l" : 0,
      "top" : "713",
      "blob_weights" : 203,
      "K" : 64,
      "name" : "713",
      "has_batch_norm" : 0,
      "type" : "convolution",
      "n_groups" : 1,
      "pad_t" : 0,
      "has_biases" : 0,
      "C" : 128,
      "bottom" : "712",
      "weights" : {

      },
      "Nx" : 1,
      "pad_mode" : 0,
      "pad_value" : 0,
      "Ny" : 1,
      "n_parallel" : 1
    },
    {
      "bottom" : "713,704",
      "alpha" : 1,
      "operation" : 0,
      "weights" : {

      },
      "fused_relu" : 0,
      "debug_info" : "714",
      "top" : "714",
      "type" : "elementwise",
      "name" : "714",
      "beta" : 0
    },
    {
      "pad_r" : 0,
      "debug_info" : "715",
      "pad_fill_mode" : 0,
      "pad_b" : 0,
      "pad_l" : 0,
      "size_x" : 2,
      "top" : "715",
      "top_shape_style" : 0,
      "stride_x" : 2,
      "avg_or_max" : 1,
      "average_count_exclude_padding" : 1,
      "type" : "pool",
      "name" : "715",
      "pad_t" : 0,
      "stride_y" : 2,
      "bottom" : "714",
      "weights" : {

      },
      "pad_mode" : 2,
      "size_y" : 2,
      "pad_value" : 0
    },
    {
      "name" : "716",
      "bottom" : "715",
      "weights" : {

      },
      "debug_info" : "716",
      "top" : "716",
      "C" : 128,
      "blob_batchnorm_params" : 205,
      "type" : "batchnorm"
    },
    {
      "bottom" : "716",
      "weights" : {

      },
      "mode" : 0,
      "debug_info" : "717",
      "top" : "717",
      "type" : "activation",
      "name" : "717"
    },
    {
      "pad_r" : 0,
      "fused_relu" : 1,
      "fused_tanh" : 0,
      "debug_info" : "718",
      "pad_fill_mode" : 0,
      "pad_b" : 0,
      "pad_l" : 0,
      "top" : "720",
      "blob_weights" : 209,
      "K" : 128,
      "blob_biases" : 207,
      "name" : "718",
      "has_batch_norm" : 0,
      "type" : "convolution",
      "n_groups" : 1,
      "pad_t" : 0,
      "has_biases" : 1,
      "C" : 64,
      "bottom" : "717",
      "weights" : {

      },
      "Nx" : 1,
      "pad_mode" : 0,
      "pad_value" : 0,
      "Ny" : 1,
      "n_parallel" : 1
    },
    {
      "pad_r" : 1,
      "fused_relu" : 1,
      "fused_tanh" : 0,
      "debug_info" : "721",
      "pad_fill_mode" : 0,
      "pad_b" : 1,
      "pad_l" : 1,
      "top" : "723",
      "blob_weights" : 213,
      "K" : 64,
      "blob_biases" : 211,
      "name" : "721",
      "has_batch_norm" : 0,
      "type" : "convolution",
      "n_groups" : 1,
      "pad_t" : 1,
      "has_biases" : 1,
      "C" : 64,
      "bottom" : "720",
      "weights" : {

      },
      "Nx" : 3,
      "pad_mode" : 0,
      "pad_value" : 0,
      "Ny" : 3,
      "n_parallel" : 1
    },
    {
      "pad_r" : 0,
      "fused_relu" : 0,
      "fused_tanh" : 0,
      "debug_info" : "724",
      "pad_fill_mode" : 0,
      "pad_b" : 0,
      "pad_l" : 0,
      "top" : "724",
      "blob_weights" : 215,
      "K" : 64,
      "name" : "724",
      "has_batch_norm" : 0,
      "type" : "convolution",
      "n_groups" : 1,
      "pad_t" : 0,
      "has_biases" : 0,
      "C" : 128,
      "bottom" : "723",
      "weights" : {

      },
      "Nx" : 1,
      "pad_mode" : 0,
      "pad_value" : 0,
      "Ny" : 1,
      "n_parallel" : 1
    },
    {
      "bottom" : "724,715",
      "alpha" : 1,
      "operation" : 0,
      "weights" : {

      },
      "fused_relu" : 0,
      "debug_info" : "725",
      "top" : "725",
      "type" : "elementwise",
      "name" : "725",
      "beta" : 0
    },
    {
      "pad_r" : 0,
      "debug_info" : "726",
      "pad_fill_mode" : 0,
      "pad_b" : 0,
      "pad_l" : 0,
      "size_x" : 2,
      "top" : "726",
      "top_shape_style" : 0,
      "stride_x" : 2,
      "avg_or_max" : 1,
      "average_count_exclude_padding" : 1,
      "type" : "pool",
      "name" : "726",
      "pad_t" : 0,
      "stride_y" : 2,
      "bottom" : "725",
      "weights" : {

      },
      "pad_mode" : 2,
      "size_y" : 2,
      "pad_value" : 0
    },
    {
      "name" : "727",
      "bottom" : "726",
      "weights" : {

      },
      "debug_info" : "727",
      "top" : "727",
      "C" : 128,
      "blob_batchnorm_params" : 217,
      "type" : "batchnorm"
    },
    {
      "bottom" : "727",
      "weights" : {

      },
      "mode" : 0,
      "debug_info" : "728",
      "top" : "728",
      "type" : "activation",
      "name" : "728"
    },
    {
      "pad_r" : 0,
      "fused_relu" : 1,
      "fused_tanh" : 0,
      "debug_info" : "729",
      "pad_fill_mode" : 0,
      "pad_b" : 0,
      "pad_l" : 0,
      "top" : "731",
      "blob_weights" : 221,
      "K" : 128,
      "blob_biases" : 219,
      "name" : "729",
      "has_batch_norm" : 0,
      "type" : "convolution",
      "n_groups" : 1,
      "pad_t" : 0,
      "has_biases" : 1,
      "C" : 64,
      "bottom" : "728",
      "weights" : {

      },
      "Nx" : 1,
      "pad_mode" : 0,
      "pad_value" : 0,
      "Ny" : 1,
      "n_parallel" : 1
    },
    {
      "pad_r" : 1,
      "fused_relu" : 1,
      "fused_tanh" : 0,
      "debug_info" : "732",
      "pad_fill_mode" : 0,
      "pad_b" : 1,
      "pad_l" : 1,
      "top" : "734",
      "blob_weights" : 225,
      "K" : 64,
      "blob_biases" : 223,
      "name" : "732",
      "has_batch_norm" : 0,
      "type" : "convolution",
      "n_groups" : 1,
      "pad_t" : 1,
      "has_biases" : 1,
      "C" : 64,
      "bottom" : "731",
      "weights" : {

      },
      "Nx" : 3,
      "pad_mode" : 0,
      "pad_value" : 0,
      "Ny" : 3,
      "n_parallel" : 1
    },
    {
      "pad_r" : 0,
      "fused_relu" : 0,
      "fused_tanh" : 0,
      "debug_info" : "735",
      "pad_fill_mode" : 0,
      "pad_b" : 0,
      "pad_l" : 0,
      "top" : "735",
      "blob_weights" : 227,
      "K" : 64,
      "name" : "735",
      "has_batch_norm" : 0,
      "type" : "convolution",
      "n_groups" : 1,
      "pad_t" : 0,
      "has_biases" : 0,
      "C" : 128,
      "bottom" : "734",
      "weights" : {

      },
      "Nx" : 1,
      "pad_mode" : 0,
      "pad_value" : 0,
      "Ny" : 1,
      "n_parallel" : 1
    },
    {
      "bottom" : "735,726",
      "alpha" : 1,
      "operation" : 0,
      "weights" : {

      },
      "fused_relu" : 0,
      "debug_info" : "736",
      "top" : "736",
      "type" : "elementwise",
      "name" : "736",
      "beta" : 0
    },
    {
      "top" : "738",
      "use_fractional_scale_factors" : false,
      "weights" : {

      },
      "fractional_scaling_factor_y" : 1,
      "type" : "upsample",
      "scaling_factor_x" : 2,
      "mode" : 0,
      "align_corners" : 0,
      "bottom" : "736",
      "debug_info" : "738",
      "fractional_scaling_factor_x" : 1,
      "is_legacy_mode" : 1,
      "name" : "738",
      "scaling_factor_y" : 2
    },
    {
      "bottom" : "725,738",
      "alpha" : 1,
      "operation" : 0,
      "weights" : {

      },
      "fused_relu" : 0,
      "debug_info" : "739",
      "top" : "739",
      "type" : "elementwise",
      "name" : "739",
      "beta" : 0
    },
    {
      "name" : "740",
      "bottom" : "739",
      "weights" : {

      },
      "debug_info" : "740",
      "top" : "740",
      "C" : 128,
      "blob_batchnorm_params" : 229,
      "type" : "batchnorm"
    },
    {
      "bottom" : "740",
      "weights" : {

      },
      "mode" : 0,
      "debug_info" : "741",
      "top" : "741",
      "type" : "activation",
      "name" : "741"
    },
    {
      "pad_r" : 0,
      "fused_relu" : 1,
      "fused_tanh" : 0,
      "debug_info" : "742",
      "pad_fill_mode" : 0,
      "pad_b" : 0,
      "pad_l" : 0,
      "top" : "744",
      "blob_weights" : 233,
      "K" : 128,
      "blob_biases" : 231,
      "name" : "742",
      "has_batch_norm" : 0,
      "type" : "convolution",
      "n_groups" : 1,
      "pad_t" : 0,
      "has_biases" : 1,
      "C" : 64,
      "bottom" : "741",
      "weights" : {

      },
      "Nx" : 1,
      "pad_mode" : 0,
      "pad_value" : 0,
      "Ny" : 1,
      "n_parallel" : 1
    },
    {
      "pad_r" : 1,
      "fused_relu" : 1,
      "fused_tanh" : 0,
      "debug_info" : "745",
      "pad_fill_mode" : 0,
      "pad_b" : 1,
      "pad_l" : 1,
      "top" : "747",
      "blob_weights" : 237,
      "K" : 64,
      "blob_biases" : 235,
      "name" : "745",
      "has_batch_norm" : 0,
      "type" : "convolution",
      "n_groups" : 1,
      "pad_t" : 1,
      "has_biases" : 1,
      "C" : 64,
      "bottom" : "744",
      "weights" : {

      },
      "Nx" : 3,
      "pad_mode" : 0,
      "pad_value" : 0,
      "Ny" : 3,
      "n_parallel" : 1
    },
    {
      "pad_r" : 0,
      "fused_relu" : 0,
      "fused_tanh" : 0,
      "debug_info" : "748",
      "pad_fill_mode" : 0,
      "pad_b" : 0,
      "pad_l" : 0,
      "top" : "748",
      "blob_weights" : 239,
      "K" : 64,
      "name" : "748",
      "has_batch_norm" : 0,
      "type" : "convolution",
      "n_groups" : 1,
      "pad_t" : 0,
      "has_biases" : 0,
      "C" : 128,
      "bottom" : "747",
      "weights" : {

      },
      "Nx" : 1,
      "pad_mode" : 0,
      "pad_value" : 0,
      "Ny" : 1,
      "n_parallel" : 1
    },
    {
      "bottom" : "748,739",
      "alpha" : 1,
      "operation" : 0,
      "weights" : {

      },
      "fused_relu" : 0,
      "debug_info" : "749",
      "top" : "749",
      "type" : "elementwise",
      "name" : "749",
      "beta" : 0
    },
    {
      "top" : "751",
      "use_fractional_scale_factors" : false,
      "weights" : {

      },
      "fractional_scaling_factor_y" : 1,
      "type" : "upsample",
      "scaling_factor_x" : 2,
      "mode" : 0,
      "align_corners" : 0,
      "bottom" : "749",
      "debug_info" : "751",
      "fractional_scaling_factor_x" : 1,
      "is_legacy_mode" : 1,
      "name" : "751",
      "scaling_factor_y" : 2
    },
    {
      "bottom" : "714,751",
      "alpha" : 1,
      "operation" : 0,
      "weights" : {

      },
      "fused_relu" : 0,
      "debug_info" : "752",
      "top" : "752",
      "type" : "elementwise",
      "name" : "752",
      "beta" : 0
    },
    {
      "name" : "753",
      "bottom" : "752",
      "weights" : {

      },
      "debug_info" : "753",
      "top" : "753",
      "C" : 128,
      "blob_batchnorm_params" : 241,
      "type" : "batchnorm"
    },
    {
      "bottom" : "753",
      "weights" : {

      },
      "mode" : 0,
      "debug_info" : "754",
      "top" : "754",
      "type" : "activation",
      "name" : "754"
    },
    {
      "pad_r" : 0,
      "fused_relu" : 1,
      "fused_tanh" : 0,
      "debug_info" : "755",
      "pad_fill_mode" : 0,
      "pad_b" : 0,
      "pad_l" : 0,
      "top" : "757",
      "blob_weights" : 245,
      "K" : 128,
      "blob_biases" : 243,
      "name" : "755",
      "has_batch_norm" : 0,
      "type" : "convolution",
      "n_groups" : 1,
      "pad_t" : 0,
      "has_biases" : 1,
      "C" : 64,
      "bottom" : "754",
      "weights" : {

      },
      "Nx" : 1,
      "pad_mode" : 0,
      "pad_value" : 0,
      "Ny" : 1,
      "n_parallel" : 1
    },
    {
      "pad_r" : 1,
      "fused_relu" : 1,
      "fused_tanh" : 0,
      "debug_info" : "758",
      "pad_fill_mode" : 0,
      "pad_b" : 1,
      "pad_l" : 1,
      "top" : "760",
      "blob_weights" : 249,
      "K" : 64,
      "blob_biases" : 247,
      "name" : "758",
      "has_batch_norm" : 0,
      "type" : "convolution",
      "n_groups" : 1,
      "pad_t" : 1,
      "has_biases" : 1,
      "C" : 64,
      "bottom" : "757",
      "weights" : {

      },
      "Nx" : 3,
      "pad_mode" : 0,
      "pad_value" : 0,
      "Ny" : 3,
      "n_parallel" : 1
    },
    {
      "pad_r" : 0,
      "fused_relu" : 0,
      "fused_tanh" : 0,
      "debug_info" : "761",
      "pad_fill_mode" : 0,
      "pad_b" : 0,
      "pad_l" : 0,
      "top" : "761",
      "blob_weights" : 251,
      "K" : 64,
      "name" : "761",
      "has_batch_norm" : 0,
      "type" : "convolution",
      "n_groups" : 1,
      "pad_t" : 0,
      "has_biases" : 0,
      "C" : 128,
      "bottom" : "760",
      "weights" : {

      },
      "Nx" : 1,
      "pad_mode" : 0,
      "pad_value" : 0,
      "Ny" : 1,
      "n_parallel" : 1
    },
    {
      "bottom" : "761,752",
      "alpha" : 1,
      "operation" : 0,
      "weights" : {

      },
      "fused_relu" : 0,
      "debug_info" : "762",
      "top" : "762",
      "type" : "elementwise",
      "name" : "762",
      "beta" : 0
    },
    {
      "top" : "764",
      "use_fractional_scale_factors" : false,
      "weights" : {

      },
      "fractional_scaling_factor_y" : 1,
      "type" : "upsample",
      "scaling_factor_x" : 2,
      "mode" : 0,
      "align_corners" : 0,
      "bottom" : "762",
      "debug_info" : "764",
      "fractional_scaling_factor_x" : 1,
      "is_legacy_mode" : 1,
      "name" : "764",
      "scaling_factor_y" : 2
    },
    {
      "bottom" : "703,764",
      "alpha" : 1,
      "operation" : 0,
      "weights" : {

      },
      "fused_relu" : 0,
      "debug_info" : "765",
      "top" : "765",
      "type" : "elementwise",
      "name" : "765",
      "beta" : 0
    },
    {
      "name" : "766",
      "bottom" : "765",
      "weights" : {

      },
      "debug_info" : "766",
      "top" : "766",
      "C" : 128,
      "blob_batchnorm_params" : 253,
      "type" : "batchnorm"
    },
    {
      "bottom" : "766",
      "weights" : {

      },
      "mode" : 0,
      "debug_info" : "767",
      "top" : "767",
      "type" : "activation",
      "name" : "767"
    },
    {
      "pad_r" : 0,
      "fused_relu" : 1,
      "fused_tanh" : 0,
      "debug_info" : "768",
      "pad_fill_mode" : 0,
      "pad_b" : 0,
      "pad_l" : 0,
      "top" : "770",
      "blob_weights" : 257,
      "K" : 128,
      "blob_biases" : 255,
      "name" : "768",
      "has_batch_norm" : 0,
      "type" : "convolution",
      "n_groups" : 1,
      "pad_t" : 0,
      "has_biases" : 1,
      "C" : 64,
      "bottom" : "767",
      "weights" : {

      },
      "Nx" : 1,
      "pad_mode" : 0,
      "pad_value" : 0,
      "Ny" : 1,
      "n_parallel" : 1
    },
    {
      "pad_r" : 1,
      "fused_relu" : 1,
      "fused_tanh" : 0,
      "debug_info" : "771",
      "pad_fill_mode" : 0,
      "pad_b" : 1,
      "pad_l" : 1,
      "top" : "773",
      "blob_weights" : 261,
      "K" : 64,
      "blob_biases" : 259,
      "name" : "771",
      "has_batch_norm" : 0,
      "type" : "convolution",
      "n_groups" : 1,
      "pad_t" : 1,
      "has_biases" : 1,
      "C" : 64,
      "bottom" : "770",
      "weights" : {

      },
      "Nx" : 3,
      "pad_mode" : 0,
      "pad_value" : 0,
      "Ny" : 3,
      "n_parallel" : 1
    },
    {
      "pad_r" : 0,
      "fused_relu" : 0,
      "fused_tanh" : 0,
      "debug_info" : "774",
      "pad_fill_mode" : 0,
      "pad_b" : 0,
      "pad_l" : 0,
      "top" : "774",
      "blob_weights" : 263,
      "K" : 64,
      "name" : "774",
      "has_batch_norm" : 0,
      "type" : "convolution",
      "n_groups" : 1,
      "pad_t" : 0,
      "has_biases" : 0,
      "C" : 128,
      "bottom" : "773",
      "weights" : {

      },
      "Nx" : 1,
      "pad_mode" : 0,
      "pad_value" : 0,
      "Ny" : 1,
      "n_parallel" : 1
    },
    {
      "bottom" : "774,765",
      "alpha" : 1,
      "operation" : 0,
      "weights" : {

      },
      "fused_relu" : 0,
      "debug_info" : "775",
      "top" : "775",
      "type" : "elementwise",
      "name" : "775",
      "beta" : 0
    },
    {
      "top" : "777",
      "use_fractional_scale_factors" : false,
      "weights" : {

      },
      "fractional_scaling_factor_y" : 1,
      "type" : "upsample",
      "scaling_factor_x" : 2,
      "mode" : 0,
      "align_corners" : 0,
      "bottom" : "775",
      "debug_info" : "777",
      "fractional_scaling_factor_x" : 1,
      "is_legacy_mode" : 1,
      "name" : "777",
      "scaling_factor_y" : 2
    },
    {
      "bottom" : "692,777",
      "alpha" : 1,
      "operation" : 0,
      "weights" : {

      },
      "fused_relu" : 0,
      "debug_info" : "778",
      "top" : "778",
      "type" : "elementwise",
      "name" : "778",
      "beta" : 0
    },
    {
      "name" : "779",
      "bottom" : "778",
      "weights" : {

      },
      "debug_info" : "779",
      "top" : "779",
      "C" : 128,
      "blob_batchnorm_params" : 265,
      "type" : "batchnorm"
    },
    {
      "bottom" : "779",
      "weights" : {

      },
      "mode" : 0,
      "debug_info" : "780",
      "top" : "780",
      "type" : "activation",
      "name" : "780"
    },
    {
      "pad_r" : 0,
      "fused_relu" : 1,
      "fused_tanh" : 0,
      "debug_info" : "781",
      "pad_fill_mode" : 0,
      "pad_b" : 0,
      "pad_l" : 0,
      "top" : "783",
      "blob_weights" : 269,
      "K" : 128,
      "blob_biases" : 267,
      "name" : "781",
      "has_batch_norm" : 0,
      "type" : "convolution",
      "n_groups" : 1,
      "pad_t" : 0,
      "has_biases" : 1,
      "C" : 64,
      "bottom" : "780",
      "weights" : {

      },
      "Nx" : 1,
      "pad_mode" : 0,
      "pad_value" : 0,
      "Ny" : 1,
      "n_parallel" : 1
    },
    {
      "pad_r" : 1,
      "fused_relu" : 1,
      "fused_tanh" : 0,
      "debug_info" : "784",
      "pad_fill_mode" : 0,
      "pad_b" : 1,
      "pad_l" : 1,
      "top" : "786",
      "blob_weights" : 273,
      "K" : 64,
      "blob_biases" : 271,
      "name" : "784",
      "has_batch_norm" : 0,
      "type" : "convolution",
      "n_groups" : 1,
      "pad_t" : 1,
      "has_biases" : 1,
      "C" : 64,
      "bottom" : "783",
      "weights" : {

      },
      "Nx" : 3,
      "pad_mode" : 0,
      "pad_value" : 0,
      "Ny" : 3,
      "n_parallel" : 1
    },
    {
      "pad_r" : 0,
      "fused_relu" : 0,
      "fused_tanh" : 0,
      "debug_info" : "787",
      "pad_fill_mode" : 0,
      "pad_b" : 0,
      "pad_l" : 0,
      "top" : "787",
      "blob_weights" : 275,
      "K" : 64,
      "name" : "787",
      "has_batch_norm" : 0,
      "type" : "convolution",
      "n_groups" : 1,
      "pad_t" : 0,
      "has_biases" : 0,
      "C" : 128,
      "bottom" : "786",
      "weights" : {

      },
      "Nx" : 1,
      "pad_mode" : 0,
      "pad_value" : 0,
      "Ny" : 1,
      "n_parallel" : 1
    },
    {
      "bottom" : "787,778",
      "alpha" : 1,
      "operation" : 0,
      "weights" : {

      },
      "fused_relu" : 0,
      "debug_info" : "788",
      "top" : "788",
      "type" : "elementwise",
      "name" : "788",
      "beta" : 0
    },
    {
      "name" : "789",
      "bottom" : "788",
      "weights" : {

      },
      "debug_info" : "789",
      "top" : "789",
      "C" : 128,
      "blob_batchnorm_params" : 277,
      "type" : "batchnorm"
    },
    {
      "bottom" : "789",
      "weights" : {

      },
      "mode" : 0,
      "debug_info" : "790",
      "top" : "790",
      "type" : "activation",
      "name" : "790"
    },
    {
      "pad_r" : 0,
      "fused_relu" : 1,
      "fused_tanh" : 0,
      "debug_info" : "791",
      "pad_fill_mode" : 0,
      "pad_b" : 0,
      "pad_l" : 0,
      "top" : "793",
      "blob_weights" : 281,
      "K" : 128,
      "blob_biases" : 279,
      "name" : "791",
      "has_batch_norm" : 0,
      "type" : "convolution",
      "n_groups" : 1,
      "pad_t" : 0,
      "has_biases" : 1,
      "C" : 128,
      "bottom" : "790",
      "weights" : {

      },
      "Nx" : 1,
      "pad_mode" : 0,
      "pad_value" : 0,
      "Ny" : 1,
      "n_parallel" : 1
    },
    {
      "pad_r" : 0,
      "fused_relu" : 0,
      "fused_tanh" : 0,
      "debug_info" : "hourglass",
      "pad_fill_mode" : 0,
      "pad_b" : 0,
      "pad_l" : 0,
      "top" : "hourglass",
      "blob_weights" : 285,
      "K" : 128,
      "blob_biases" : 283,
      "name" : "hourglass",
      "has_batch_norm" : 0,
      "type" : "convolution",
      "n_groups" : 1,
      "pad_t" : 0,
      "has_biases" : 1,
      "C" : 16,
      "bottom" : "793",
      "weights" : {

      },
      "Nx" : 1,
      "pad_mode" : 0,
      "pad_value" : 0,
      "Ny" : 1,
      "n_parallel" : 1,
      "attributes" : {
        "is_output" : 1
      }
    }
  ]
}